pth/cifar_net.pth (torch, 251604 bytes, 10 tensors)

conv1.weight f4 [6, 3, 5, 5]
00000000: 9623 ce3c 4f7b 0a3e 8ccc 9e3c 8f84 82bc
00000010: 8794 323e 0d51 f0bd e94b 07bd 9381 663d
00000020: 15b7 5bbe c1b9 223d ae71 8fbe 0f0e b4be
00000030: 71b8 89be 6834 e6be 9879 23be 762a 193e
00000040: ef43 9bbd 3186 05bc 0419 11be 63e9 95bb
00000050: 70d7 23bc 5832 413e 04cd 693e c054 7e3d
00000060: 6f7b 0f3e 9fd2 89bd 17d1 a53d 0739 4b3e
00000070: 0e84 84bc 2d82 6a3e ac74 03be 4f55 be3d
00000080: fdf1 303d 7fe8 17be 0d40 623c 73fd 0ebe
00000090: 0deb e9bd 965c 77bd 1bb8 abbe 151b 2fbe
000000a0: de30 133e 4e97 993d 8332 7c3e faa0 593c
000000b0: ccfd 303d 6c5a ccbd ccea 903d 3985 aa3e
000000c0: b746 183e 0525 1b3e 764a 0ebe 47e2 0c3e
000000d0: 1be2 2ebc 73f4 b43d 29f4 f23d f273 4a3d
000000e0: 8d21 e33d c209 60bd 8ee8 10be ee68 d03c
000000f0: 7294 46be db3f 353b 4dd0 2bbe 6074 00be
00000100: a0bd 10be 827e c5bc 1c80 6abd ede3 f73d
00000110: d799 8a3d f89b 243e 9b9e 1abd f66b 9d3d
00000120: 55d1 463e 3fdf 8f3d de57 d8bd f69c 35bd
00000130: 9757 d1bc 2cb3 41bc 6290 30bd 6236 393d
00000140: c3cb ba3d ce2c f7bd 72a3 24be c297 9f3c
00000150: f4f8 ab3c 1ce9 cf3d f9a1 dbbd 136b 99be
00000160: 68c7 f03d 45b6 0f3e 113a 553d 9160 753e
00000170: 04ab 7b3d 0067 bebd 1428 65be e0a8 f1bd
00000180: 7f2c 583e 0dc4 453e 2c3e 3ebe 42d5 21be
00000190: c2e4 d3bc 3e5b 903c 9e69 2d3e 569f f0bd
000001a0: af5d 433c 4f2f 933d 6888 f4bd be9e 5abd
000001b0: 1798 653e d541 b63d 209b b73d a8fe 37be
000001c0: 34e4 89be 8511 583e fec0 3b3e 7c37 cdbd
000001d0: 1b29 ee3d be79 1e3e 7464 42be cc73 43bd
000001e0: 2665 f5bc 982b 3a3e 6c17 3b3e 7b74 34be
000001f0: fdd2 55be 0795 24be cbc9 b03c a194 023e
00000200: 10e9 a0bd 77fb 31bd 8527 203e 44f5 5ebe
00000210: e237 18be 2eb5 383e 3585 5ebc ee17 283e
00000220: 9e16 27be de85 66be a8aa e93d 74ae 493e
00000230: fd62 7ebb 597e 353e e4a6 973d 6801 06be
00000240: 67de 99bd 0ca1 1bbd 694c 2c3e ef66 523e
00000250: 5580 5bbe e6dc 0bbe b317 0fbe d892 b0bc
00000260: c0ec 83bd 1083 5d3d b14b ff3a 1b9d d7bd
00000270: 200c bcbc b00d b2bc 00f4 29bd 073a a63d
00000280: 841d 35be aaf4 b4bc 532d a0bd d87b c4bc
00000290: 4c0c 993d 0d94 503c ebac 00bd 13be 97bd
000002a0: 7af3 62bc 3000 b03d 48df 5dbd 8454 bcbd
000002b0: a87d 03be ce6c fbbd aaa7 c9bd a22f d0bd
000002c0: f271 d8bd ac62 e9bc 3e51 5bbd 1e66 683d
000002d0: 6b47 33be eded f3bc 243e 7abd 4766 5abb
000002e0: 5863 e73d 1386 d1bd 3a67 27be 5b31 ebbd
000002f0: 7a38 e83c aa05 6ebd ec54 8ebd a02a 6abc
00000300: b6c4 49be c83f 2fbd a657 503d a987 6d3d
00000310: cebd 0ebd bd75 ccbd e210 b0bd d852 b63d
00000320: fe89 c6bd 189b 883a 99bd b3ba 3763 283e
00000330: a65f 1bbd 8077 fbbd 14dc 43bd 6ad8 9a3d
00000340: 8200 373e e0fe d7bb b24c 79bd ef64 8bbd
00000350: 3e55 52bb cc5c a73d 6112 1f3e 6cdb 0abd
00000360: 16fa 5dbd 5c62 a43d a725 8dbc f9da 123e
00000370: 5f53 243c 552a 943d f5e3 703d dffd 05bc
00000380: 43fd 2e3d d9f9 a53e e851 273e 2bfc ad3e
00000390: ace1 c53e f3c6 343e 35bd be3d a8e6 aa3d
000003a0: 7b1f 0a3d 458f 323e b8da 743d 8437 073e
000003b0: 33ef 953b da0c c53c 578b 57bd 29c8 e4bd
000003c0: 001d eabd bf32 033c c1ed acbd f472 96bd
000003d0: 8d07 69bc 29a4 81be 6552 2fbe a6d6 81bd
000003e0: 5c1e 51be f8a5 e1bd fe1d e1bc abf0 153d
000003f0: 6985 9e3d a17e 8cbd 592a bcbd 8168 41be
0.025163453 0.13523601 0.019384645 -0.01593235 0.17439471 -0.11734209 -0.033031378 0.056275915
-0.21456559 0.03972793 -0.28016418 -0.35166976 -0.2689853 -0.44961858 -0.15964353 0.14957604
-0.07581317 -0.0081496695 -0.14169699 -0.004574941 -0.010000095 0.18866861 0.22832114 0.062092543
0.1401193 -0.06729626 0.08096521 0.19845973 -0.01617625 0.2290122 -0.12837476 0.09293615
0.043199528 -0.14834784 0.013809216 -0.1396387 -0.114217855 -0.06039103 -0.335389 -0.17100175
0.1437411 0.07499562 0.24628644 0.013283009 0.04321079 -0.09978184 0.07076034 0.33304766
0.14870726 0.1515084 -0.13895592 0.13758193 -0.010674025 0.088356875 0.11862976 0.04942698
0.11090384 -0.054696806 -0.14151213 0.02544066 -0.19392565 0.002765647 -0.16778679 -0.12544394
-0.14134836 -0.024108175 -0.05725108 0.1210402 0.06767624 0.16075122 -0.037748914 0.076866075
0.19415791 0.07025003 -0.10563634 -0.044339143 -0.025554461 -0.011822503 -0.043106444 0.04521788
0.09120896 -0.12069093 -0.16077974 0.019481543 0.020992734 0.10151884 -0.10724253 -0.29964504
0.11756784 0.14034374 0.05205733 0.23962618 0.06144239 -0.092969894 -0.2237857 -0.117997885
0.21110724 0.19313069 -0.18578404 -0.15804008 -0.025865916 0.017621633 0.16934821 -0.11749141
0.011924191 0.07186758 -0.1194008 -0.053374045 0.22421299 0.08899275 0.089651346 -0.17968237
-0.26931918 0.21100433 0.1833534 -0.100203484 0.11628934 0.15476128 -0.18983632 -0.047717854
-0.029955458 0.18180692 0.18270653 -0.17622559 -0.20881267 -0.16072474 0.021580597 0.1275201
-0.07856953 -0.043452706 0.15640076 -0.21773249 -0.14865068 0.18037865 -0.013581564 0.16415378
-0.16317222 -0.22512004 0.11409503 0.19695455 -0.0038816326 0.17723979 0.07404879 -0.13086474
-0.07513123 -0.037995383 0.16826023 0.20547079 -0.21435674 -0.13658485 -0.13973884 -0.021554396
-0.06441641 0.05408007 0.0019477514 -0.10528012 -0.022955 -0.021735042 -0.041492462 0.081165366
-0.1768704 -0.022089321 -0.07821145 -0.023984835 0.074730486 0.012730611 -0.031414907 -0.07409301
-0.013851995 0.08593786 -0.054168016 -0.091958076 -0.12840903 -0.12276612 -0.098464325 -0.10165335
-0.10568608 -0.028489433 -0.053544275 0.05673801 -0.17507713 -0.029776538 -0.06109442 -0.0033325122
0.11298245 -0.10230651 -0.16347972 -0.11484023 0.028347243 -0.05811087 -0.06949791 -0.014292389
-0.19703946 -0.042785436 0.050864838 0.057990704 -0.03484898 -0.09983394 -0.0859697 0.0890252
-0.09694289 0.0010422198 -0.0013713121 0.16444097 -0.037933014 -0.12278652 -0.047817305 0.07560809
0.17871287 -0.0065916628 -0.060864158 -0.06806361 -0.0032094265 0.081719965 0.15534355 -0.033900663
-0.05419358 0.08026573 -0.017229868 0.14341344 0.010029643 0.07234637 0.058811147 -0.008178203
0.042721998 0.3241718 0.16339839 0.3398145 0.38648736 0.17654018 0.09313432 0.083447754
0.03372143 0.17437465 0.0597789 0.13204771 0.004575634 0.02405398 -0.05262312 -0.1117099
-0.114313126 0.008007704 -0.084437855 -0.07346144 -0.014222992 -0.25320557 -0.17121275 -0.06339769
-0.20421737 -0.11017984 -0.027480122 0.036606472 0.0774029 -0.0686009 -0.09187765 -0.18887521

conv1.bias f4 [6]
00000000: 2ec5 37be aa43 ef3e c790 923e efd8 20be
00000010: fdad dabc 572b b43e
-0.17946312 0.4673131 0.2862608 -0.15707754 -0.026694292 0.35189316

conv2.weight f4 [16, 6, 5, 5]
00000000: 98b1 4bbd fb6b 3c3d 90e5 42bd bd81 83bc
00000010: 24d0 ba3d 6d3b 9bbd 373b 1f3d 4754 8abd
00000020: cb89 c53d b651 ab3b f1b8 36bd 9a7a 91bd
00000030: 4a8a 63bb 10d5 813d 6cbb c83d f7f8 8bbc
00000040: 119f 913c 2b81 a93a 0b50 463d c8c6 053c
00000050: 09fc 40bd 549b 8fbb 10fc 03bd 84cc 913d
00000060: f5ef 61bc 7d5a 863d 23e9 873d 428d bb3d
00000070: 0d0e d63c e8e5 dd3d bfcf 483b b05b 753d
00000080: 91a9 1c3d c1c0 073e 325f ef3d 8c74 9a3d
00000090: 70e2 e83d 87ab ef3d 377e ca3c c1f0 f93d
000000a0: 6a60 8e3c 56bb ab3d 82eb 1e3d 883e a6bb
000000b0: e493 633d f163 31bd e524 013d c46d 8d3d
000000c0: dbde e33d cfad c13c 6bbb 233d 65d6 40bd
000000d0: 7c47 26bb 3ecc b33d dda9 2539 bda1 e03c
000000e0: 8849 c7bd f3a4 a4bd 56f8 9bbd 3f54 61bd
000000f0: 7ee1 adbd bb5b c8bd 464b eabc 8b7a c2bd
00000100: 3e52 f03c 7a7e cabd f0d1 e7bc d376 a6bd
00000110: e7bc 8aba 7990 b43c f33b 473c 91b0 e1bd
00000120: 1b7f babd a281 283c d6d7 5a3d 3e0c 29bd
00000130: 5d00 9fbd b7dc 3f3d ac86 73bc 8e76 b63d
00000140: 0eb9 03bd f6bf 7fbc 0f94 8ebd 077a b0bc
00000150: f46d 1f3d 03a5 8c38 ecff e7bc acd8 1b3d
00000160: 7bfe 4d3d 98d8 d3bc 1888 d5bd 6193 19bd
00000170: 4190 933c 11fd 40bc 3ce3 9aba 7e04 acbd
00000180: 27e6 b1bd 7234 823d 9eb7 483d 7e4a d93d
00000190: 036b 87bd 6166 02bb 7a9b 21bd 2938 9e3c
000001a0: 4de9 81bd cedf 9b3c f4b0 1abd 3e95 7a3c
000001b0: 319f b6bc 4aa8 1a3d 5e23 a8bd c342 25bd
000001c0: 6145 b23c 9d08 2cbc d177 16bd 3243 8cbd
000001d0: 93f8 d4bc 03b1 8cbc 9716 22bd 42eb c5bd
000001e0: 7a6e a43d d742 453d de8e 82bd 430f babd
000001f0: e914 533d b0c4 193d e97c 6ebc 832b 933d
00000200: a667 30bd e24d ba3d 2e4a e939 d1ce 91bd
00000210: 62fe d83b 4739 1bbd cb38 1a3d e9e6 7dbd
00000220: cece 51bd ed60 c3bd 83b4 cd3c 545a fabc
00000230: 8af9 563c b995 bfbd cdd1 f6bb b0d2 6dbd
00000240: b05a abbc 372b c0bc 966b aabd 81fc 84bd
00000250: b5ea c4bd 5237 603d 06fc 9ebd a1b9 b7bd
00000260: da3c 29bc 2c93 bcbc c139 8cbd 1bc4 edbd
00000270: 91e5 3bbc e697 f43c a082 efbd 1c20 32bd
00000280: ddcf 1c3d b4fc a8bc 4a11 98bd c8fd 62bd
00000290: 55df b2bd ec9a a1bb b00b 8ebc eb4c b8bd
000002a0: 8362 91bd fb91 49bd f138 55bd 22fe 013d
000002b0: ad9b 12bc f08f 71bb fde3 c93c e592 913d
000002c0: a739 673d 120d 55bc 3cfe 363d 6d30 ab3d
000002d0: 7c29 3f3d 6bd8 213d d8a7 943c 5c86 06bd
000002e0: 0a0a 42bd fb60 573d 55f1 f63c 0a68 a13d
000002f0: 75b4 843c 6b15 aa3b 00da 9a3c 9fc1 fe3c
00000300: 64fd 823d bc68 01bc 618d d0bc 4829 a43c
00000310: 3b1e 9d3a aa36 e93d 9969 debc c068 083d
00000320: 22ac 37bd a832 2e3c 4ee3 05bd 662b 553d
00000330: c2db 1f3d fc15 32ba 9010 96bd d15d eabc
00000340: 3bec 973d c60c aa3c 7f91 ca3c d023 cbbb
00000350: 0939 ea3c e06d a1bd c92b 01bd e827 abbd
00000360: 2eec a9bd 6780 70bd 6ab3 8ebd 0769 00bd
00000370: 2935 4ebb d679 92bc ebd5 06be bfde d8bd
00000380: 8f5f d1bc 5d19 8dbd a5af 49bc 5f38 713d
00000390: ae78 16bd 2c6f 50bd 0a5e a1bd 3fb7 ea3c
000003a0: bee2 9fbd ff2e a7bc 6976 62bd 7c03 0abd
000003b0: 02d1 aebd 5754 c4bb 6eff 623d 918e 7abd
000003c0: 57e9 3bbd 07d0 b8bc dca2 063c 5f13 6abd
000003d0: e408 9d3d fcc6 a1bc f5e5 20bc a312 26bd
000003e0: 8432 a83d 753b c73d b73a aeba 3ec7 2b3b
000003f0: 8a6d 533d f369 2b3d 9781 7f3c ec8f e63c
-0.049729913 0.046001416 -0.04758221 -0.016053075 0.09121731 -0.07579694 0.03887483 -0.06754356
0.096454225 0.0052282466 -0.044609968 -0.071034625 -0.0034719878 0.063394666 0.09801373 -0.01708649
0.017776044 0.0012932172 0.04841618 0.008165069 -0.04711536 -0.00438253 -0.032222807 0.071190864
-0.01379012 0.06560228 0.06636264 0.09157802 0.026129747 0.10834867 0.0030641404 0.059901893
0.03824765 0.13257124 0.11688079 0.07541761 0.113713145 0.11702638 0.024718387 0.12204123
0.017379958 0.08385341 0.038798817 -0.0050733723 0.05556096 -0.043308202 0.031529326 0.06905702
0.11126491 0.023642449 0.039973658 -0.047079463 -0.0025372198 0.087791905 0.00015798905 0.027420873
-0.09730822 -0.08039274 -0.07615726 -0.055011984 -0.08490275 -0.09783121 -0.028600346 -0.094960295
0.029336091 -0.09887405 -0.028298348 -0.08128133 -0.0010584862 0.022041546 0.012160289 -0.110200055
-0.09106275 0.010284813 0.053428493 -0.04127144 -0.07763741 0.04684135 -0.014863651 0.08909331
-0.032158904 -0.015609732 -0.06961834 -0.021542562 0.03892322 6.706456e-05 -0.028320275 0.03804843
0.05029152 -0.025860116 -0.104263484 -0.037494067 0.018013122 -0.011779086 -0.0011816989 -0.08399294
-0.08686476 0.063576594 0.049003236 0.106099114 -0.06612208 -0.0019897448 -0.039454915 0.019313889
-0.06343327 0.019027617 -0.037766412 0.015294371 -0.022292705 0.03775815 -0.08209871 -0.040346872
0.021761598 -0.0105001 -0.03673536 -0.06848754 -0.025997436 -0.01717425 -0.039572325 -0.096640125
0.08028884 0.048159447 -0.06374906 -0.09084942 0.051533613 0.03754109 -0.014556148 0.071860336
-0.043067597 0.09096886 0.0004449649 -0.07119525 0.0066221217 -0.03789642 0.03765182 -0.06198779
-0.051222615 -0.095399715 0.025110489 -0.03056065 0.013121018 -0.09354729 -0.0075323344 -0.058062255
-0.020917267 -0.023458106 -0.08321302 -0.06493474 -0.09615079 0.054740258 -0.077629134 -0.08970953
-0.01032945 -0.023019396 -0.06846953 -0.1160967 -0.011468307 0.029857587 -0.116948366 -0.043487653
0.03828417 -0.02062831 -0.074251726 -0.055417806 -0.087340035 -0.004931798 -0.017339557 -0.08999046
-0.07098868 -0.049211483 -0.052056257 0.0317365 -0.008948249 -0.0036859475 0.024644846 0.07108096
0.056451466 -0.0130036045 0.04467605 0.08358846 0.046670422 0.039513033 0.01814644 -0.03284298
-0.047372855 0.052582722 0.030144373 0.07881172 0.01619933 0.0051905415 0.018902779 0.031098185
0.06395987 -0.007898506 -0.02545804 0.020039216 0.0011987159 0.113873795 -0.027149962 0.033303022
-0.044841893 0.010632195 -0.032687478 0.05204334 0.039027937 -0.0006793437 -0.07327378 -0.028609188
0.07418104 0.020758044 0.024727581 -0.0061993375 0.02859165 -0.07882285 -0.031535897 -0.08357221
-0.08297001 -0.058716204 -0.06967814 -0.031350162 -0.0031464791 -0.017880362 -0.1316754 -0.105893604
-0.025558261 -0.06889603 -0.012309943 0.05889165 -0.036736183 -0.05088727 -0.07879265 0.028651832
-0.078069195 -0.020408152 -0.055288706 -0.03369473 -0.08535959 -0.0059914994 0.055419378 -0.06117112
-0.045876827 -0.022560133 0.00821754 -0.05714738 0.076677114 -0.019748203 -0.009820451 -0.040545117
0.0821276 0.097281374 -0.0013292645 0.0026211287 0.051618136 0.041849088 0.0155948615 0.0281448

conv2.bias f4 [16]
00000000: 7458 a43d 48ab 1fbc 2de4 3c3e 88c0 43be
00000010: bb1f 2b3e 7834 0a3e 72f8 36be 25d8 d3bd
00000020: ac2e bb3c 6d31 77be cf73 a0bd c0b4 2a39
00000030: 8e6c 6c3d 22fa a83e 14b8 2dbe 40b8 9739
0.080246836 -0.0097454265 0.18446417 -0.19116414 0.16711323 0.13496578 -0.17868212 -0.10343961
0.022849403 -0.24139948 -0.07834589 0.00016279798 0.057720713 0.33003336 -0.16964751 0.0002893824

fc1.weight f4 [120, 400]
00000000: 75de 72bc 0d4b 73bd 3951 70bc fc26 e8bc
00000010: 976c e93c 6142 01bc 5098 3cbd 143f 30bd
00000020: 10f0 cebc dc3b 9ebc 9b32 43bd 6a0d 6abc
00000030: f468 8b3c 0355 e5bb ed74 51bd fbd5 1bbd
00000040: 7795 183d 6d37 e93c cbef 9ebc e60f 3abc
00000050: a27d 053d 0d30 11bd 21f1 a4bb 18bf 74bc
00000060: 84b7 45bd 9822 703b c928 b73c 43e7 0bbd
00000070: 6397 2dbd d339 32bd c174 f13c bb7c fe3b
00000080: 1d0a bf3c de5c f23b 1023 d2bc bce7 c73c
00000090: ef10 0cbc 32e3 253d eeb6 fc3c 79df 273d
000000a0: 62d0 66bd f4ac 1ebd 6281 2a3d bf53 a13c
000000b0: 790b ba3c f21c 7dbc 039e 1bbd 4e8b 413d
000000c0: 9743 083d 9900 13bd 9ec7 6c3d 11d7 153d
000000d0: 5ae4 7abc 24f9 36bd fa61 203d d26e 273d
000000e0: 3730 04bd 6c38 5bbb 4d98 01b9 0c08 d93b
000000f0: 3638 003d b0a3 20bd 1a68 05bd 3b4b 34bb
00000100: 1b78 c83c 80ed f23c 9708 603d cb12 d63c
00000110: 4a86 063d 8156 883b d835 eebb 4532 07bb
00000120: bb29 23bd cbaa 313c 81fc 943c 4e78 623d
00000130: 8afd d03c 1f2a 313c 6bd6 82bc 9e33 b63c
00000140: be7e e2bc 7d20 543b 5e11 1d3c cc48 133c
00000150: 3946 0a3d 22c7 063d 5aba a439 46b6 f93b
00000160: af3d e8bc e4c3 59bd 1b96 103c 540d 213c
00000170: 7979 1b3d 8ca7 033d 78ab 82bc 320e 0e3d
00000180: 2255 da38 b160 1c3d 7a1c 4f3c cd48 373c
00000190: bbc8 d73c 1756 bbbc 50bb 27bd 8727 1abd
000001a0: 1042 42bd 2805 8cbc 5f5c 373d b646 e93c
000001b0: fb83 00bd 49a5 ebbc da22 283d 753c c73c
000001c0: fd8d 20bd 22a5 c83c 0b86 313c e1a5 d9bc
000001d0: aab0 b9bc e2c5 d53b ab1b a8bc c541 b3bc
000001e0: fc0b f5ba e69f 4cbd c235 b4bc f71d 38bd
000001f0: d869 403d 3914 79bc 16a6 10bd 6dfc 1cbc
00000200: ac40 493b e6fe e5bc ef19 7cbd b120 5b3a
00000210: bd01 06bd 7cb7 38bc 21db 123d 810c ddbc
00000220: 7702 cd3c f3c5 2abd 7ff8 a23c 02df b93b
00000230: 80aa dcbc 1479 133d 8051 883c 949a 27bc
00000240: 025e e8bc 5b18 0c3d 38ae f6bc 4e65 c3b8
00000250: d4d1 06bd 87e4 68bc 2280 3d3d ffb4 6bb9
00000260: e4bf 683d 1e49 693d d6e7 b33b e29b 71bc
00000270: 1fb0 1f3c 938e ffbb 57dd 0ebc b8f4 823d
00000280: 50e8 d33c 01b1 5fbc b31e 22bc a696 85bc
00000290: ca84 813d b65f b13c 9627 11bd 0d1c 8f3b
000002a0: 1b85 be3c acc6 373d 9d6e 413d 8893 dcbc
000002b0: da12 18bd c1fb 843d e6de 633d 1b10 573c
000002c0: 224f 9f3c 89db 2bbc cc4c 163d 863d 96bc
000002d0: b4f6 00bd 2fcd 4bbd e1cf d83c 94b6 dabc
000002e0: 9693 7cbd 1233 273c 923a c03c 2e5c efb9
000002f0: 9072 f6bc 63fb dfbc fdc9 2d3d 917b c43b
00000300: 3836 93bc e490 22bd 6aef 013d a758 663c
00000310: 82a5 6ebc 5f6c 3d3c 031c fabc 5e62 cdbc
00000320: 1427 92bc 71f3 483d ffd1 e3b9 b05b 17bc
00000330: 180a a63c f6e8 e0bc a9e6 b1bc 4231 903d
00000340: 578f 1a3d f72d 333d 7c99 96bb 7f3d 713d
00000350: aaad 47bc c37d 25ba 12a5 143d 92c3 2b3c
00000360: 286d 5a3d 4667 17bb fb83 de3c 2ac8 40bc
00000370: f017 7e3a 807e d73b 8108 4cbd b0df fc3c
00000380: 6828 e7bc cb59 643c 8c82 ad3c 5406 7f3c
00000390: febe eb3c 5b8e 013b ded0 d7bb 8dcc e83b
000003a0: 1eda 41bc d17b c1bc 3677 353d bda3 513c
000003b0: d3e8 b9bc 80e4 4f3d 84f5 903c 7a2c 6e3d
000003c0: 3987 893d 4242 843d bbce 1f3d d314 6e3d
000003d0: 6d3a b0bc 91e7 a73d 7aea 133d 8301 acbc
000003e0: 9521 6c3d d5aa 7bbc 0fff e33b 59d5 423b
000003f0: f00d 83bb a4b2 413d 1ffc 4f3d 3a5a 8cbc
-0.014823546 -0.059397746 -0.0146678025 -0.028338902 0.028494162 -0.007889361 -0.046043694 -0.043028906
-0.025260955 -0.019315653 -0.047655683 -0.014285425 0.017017819 -0.0069986596 -0.0511369 -0.038045865
0.037251916 0.028468812 -0.019401452 -0.01135633 0.032590516 -0.035446215 -0.0050336276 -0.014938138
-0.048270717 0.0036641713 0.022358315 -0.034156095 -0.0423807 -0.043512177 0.029474618 0.007766334
0.023320252 0.0073963245 -0.025651485 0.024402492 -0.008548959 0.040499873 0.030848946 0.040984605
-0.056351073 -0.03873916 0.041627295 0.019693254 0.022710549 -0.015448796 -0.03799249 0.047251992
0.033267584 -0.03588924 0.057807557 0.036582056 -0.015313232 -0.044671193 0.039155938 0.04087717
-0.032272544 -0.0033450378 -0.00012359135 0.0066232737 0.031303607 -0.039218605 -0.032569982 -0.0027510661
0.024471333 0.029654264 0.054695692 0.026132008 0.03284291 0.0041607027 -0.0072696023 -0.0020629328
-0.03983472 0.010843943 0.01818681 0.055290513 0.025511522 0.010813265 -0.015971383 0.02224141
-0.027648326 0.0032367997 0.00958666 0.008989524 0.033758376 0.03290475 0.0003141936 0.0076206056
-0.028349726 -0.05316533 0.00882485 0.009829838 0.037957642 0.032142207 -0.015950903 0.034681506
0.00010410907 0.03817815 0.012641067 0.011186791 0.026340833 -0.0228682 -0.04095012 -0.037635352
-0.047426283 -0.017092302 0.044765826 0.0284761 -0.031375866 -0.028765338 0.041048862 0.02432082
-0.03919791 0.024492804 0.010835181 -0.026568355 -0.022667248 0.0065238336 -0.020521006 -0.021881947
-0.0018695588 -0.04995718 -0.02199829 -0.04495045 0.04697594 -0.015202575 -0.035314642 -0.009581667
0.0030708713 -0.028075647 -0.06154817 0.00083590584 -0.0327165 -0.011274215 0.03585351 -0.026983501
0.02502559 -0.041692685 0.019893883 0.0056723366 -0.02693677 0.03600414 0.016640425 -0.010229725
-0.028365139 0.034202915 -0.03011237 -9.317194e-05 -0.03291495 -0.014214641 0.046264775 -0.00022478773
0.056823626 0.056954496 0.0054902835 -0.014746638 0.00974658 -0.0077989786 -0.008719764 0.06394333
0.025867611 -0.013653041 -0.009895015 -0.016307186 0.06324156 0.021652084 -0.035438143 0.0043673576
0.023256829 0.044867203 0.04722463 -0.026925817 -0.037127353 0.06493331 0.055632494 0.013126398
0.019446913 -0.010489353 0.036694333 -0.018339884 -0.031485274 -0.049756225 0.026466312 -0.026698388
-0.061664186 0.010205047 0.023465429 -0.00045654312 -0.030083925 -0.02734155 0.04242896 0.0059961756
-0.01797019 -0.03968896 0.031722464 0.014059222 -0.014565827 0.011561482 -0.030530935 -0.02507132
-0.0178409 0.04906029 -0.00043453273 -0.009238169 0.020268485 -0.027454834 -0.021716433 0.07040645
0.037734356 0.043745007 -0.0045959335 0.058896538 -0.012187401 -0.00063129904 0.036290236 0.010483639
0.053326756 -0.0023102327 0.027162543 -0.011766473 0.0009692898 0.0065763593 -0.049812797 0.030868381
-0.02821751 0.013937424 0.021180414 0.015565474 0.028777596 0.0019768688 -0.006586178 0.0071044625
-0.011831788 -0.02361861 0.04430314 0.012795386 -0.022694027 0.050755024 0.017695196 0.058147885
0.06715245 0.0645795 0.039015513 0.05812533 -0.021512235 0.08198465 0.036112286 -0.020996815
0.057649214 -0.015360554 0.0069578956 0.0029729216 -0.003999464 0.047289506 0.05077755 -0.017132867

fc1.bias f4 [120]
00000000: 0e8b 7e3b 5a9e 743d 2654 9a3b 0ece b2bc
00000010: 458e 663c 13c5 123c 4a65 f3bc 41db 2abc
00000020: 07a6 3d3b f984 2abc 5af6 933b 4952 033b
00000030: 27ad 673a 4672 b0bc 4999 8e3d b7ff 7dbc
00000040: a18a 3c3d 35ca 37bd b39f 243d 048d 593d
00000050: 3e8d 5e3d fbdf 423d 1b46 5db8 e65d 0ebd
00000060: 2986 18bd 7426 c43c 2f1e 963c ebed 693d
00000070: c58a 3d3d 8a62 0a3d 3a57 3fbd a425 ca3b
00000080: c8b1 d6bc 0d16 a2bc 17d4 273d 22e9 833d
00000090: 0c82 87bd a85f 2cbd 6e82 1c3a ce8b 0bbd
000000a0: d520 833a caf2 573d c010 3a3c d9e3 933d
000000b0: 1621 05bd 81db ccbc b4c1 05bc f4bb 8d3c
000000c0: 200f d83c c819 363c 7b75 9a3c 0b96 a33c
000000d0: 74e7 18bc 6095 9f3b 1a6c 113d ffb9 b43c
000000e0: 63f5 673b e526 043b d2d4 9b3d 6c05 9fbd
000000f0: e72a 703d 64ce b13b 704d 973c 23c2 4fbc
00000100: 4999 f93d cb99 423c 4de2 3b3b 9dce b6bb
00000110: 84d0 7f3c cbab af3c db31 fc3c f0ef 69bc
00000120: fdba f53c 70e3 91bc a455 9a3c 16ca 593c
00000130: 8116 153d b13f 113d 3a4e 333d 977e 46bc
00000140: b84f 23bc a00f 8cbb 2b8d fcbb edfa 173d
00000150: 3067 b13c 7135 f03b d126 be3b 5df3 a53c
00000160: 1a03 1ebd fb20 1ebd dea3 343c 768c 59bd
00000170: 5770 48bd 5c1a 97bc 1b1b a83c dcbd 283d
00000180: 1458 8ebc 7538 033d 8493 a13d fd61 093c
00000190: dab1 c03c 4151 18bd 33d7 0fbd 3ea9 063c
000001a0: 1b56 e2bc aeba 8d3b aebb 63bc cede 3ebc
000001b0: 66c8 813c f652 a03d 19a0 62bc 0787 3fbd
000001c0: 5f5a 793c 2de6 0cbd e265 1abd a1d3 4abc
000001d0: a3b0 88bb e53b 0b3d f19b 493b fb13 5bbd
0.0038840207 0.05972133 0.0047097383 -0.02182677 0.014072006 0.008958119 -0.029711384 -0.010428251
0.0028938071 -0.01040768 0.0045154514 0.002003806 0.00088377524 -0.021538865 0.069628306 -0.015502862
0.046030644 -0.044870574 0.040191364 0.053113 0.054333918 0.047576886 -5.2755797e-05 -0.034757517
-0.03723732 0.023944117 0.01832494 0.057111662 0.04627492 0.03378538 -0.046714045 0.006169038
-0.02620782 -0.019785905 0.04097375 0.06440951 -0.06616601 -0.042083412 0.0005970363 -0.034068875
0.0010004292 0.052721776 0.011356533 0.07221193 -0.032502256 -0.025007011 -0.008163858 0.017301537
0.0263744 0.011114545 0.018854847 0.019969007 -0.0093325265 0.004870102 0.035503484 0.022061346
0.0035394065 0.0020164785 0.07608952 -0.07764706 0.058634665 0.005426215 0.018469542 -0.012680563
0.1218744 0.011877487 0.0028668821 -0.0055788294 0.015613679 0.021444222 0.030785492 -0.014278397
0.02999639 -0.017808646 0.018839665 0.01329281 0.036398415 0.03546113 0.043775775 -0.012115142
-0.009967737 -0.0042743236 -0.007707258 0.037104536 0.021655649 0.0073305895 0.005802967 0.020257646
-0.038577177 -0.03860567 0.011025397 -0.05311247 -0.04893526 -0.018445186 0.020520737 0.04119669
-0.017375983 0.032036263 0.078894645 0.008385179 0.023522306 -0.037186865 -0.03511734 0.008219061
-0.027628949 0.0043252325 -0.013899727 -0.0116498 0.015842628 0.078283235 -0.013832116 -0.04675963
0.0152193 -0.0343992 -0.03769482 -0.012379558 -0.0041714474 0.033992667 0.0030763114 -0.05348585

fc2.weight f4 [84, 120]
00000000: 2cc7 353d 75ee 86bd d816 873d 3d73 8e3c
00000010: 593b 3b3c 4b12 d33b 6c20 27bd ab20 983d
00000020: b4a3 1abc 966a a9bd e13c 213d f863 c3bd
00000030: 0215 7c3d 54dd 97bd 3ddf 2dbd 716c f2bc
00000040: bcc3 7fbc a6cf 5c3d d235 4fbd facc 483d
00000050: 1a14 8bbd d2df 46bd df82 a93d 5247 b8bd
00000060: 564c 17bd e248 1abd 47c5 223d e7ac 4a3d
00000070: 6e7d 30bd a06b 2e3d 2db4 7b3c 9775 ccbd
00000080: 88d5 acbd a18b e53d 5759 56bd c1b9 af3d
00000090: db2b 51bd 210f 87bd b9b7 c2bd 8c45 4d3d
000000a0: f37e 63bc 8402 9abd dc1c 473c a8f0 94bd
000000b0: 80ad 53bc ce1e 953d a4ec 063d ce0a 16bc
000000c0: 9342 833d f801 85bd 772c 92bd fe05 afbd
000000d0: 3392 85bd 9143 1cbd aa71 e83d 23d6 fb3c
000000e0: 79d3 d33c f925 99bd cd82 4a3d 8ea4 b6bd
000000f0: 281b d6bd 942a 283d 25a5 473d e477 b7bd
00000100: c6f0 5cbd 7f02 91bd 250e 7cbd 9cec 8a3d
00000110: 73af a63d 90db 4bbd 7999 613d 15cf 1ebc
00000120: a140 3f3d 7bb1 433d bc91 a83c e058 b03d
00000130: 744e a9bd d230 a43d 10ab 66bd 03bc 6fbd
00000140: 7f11 e4bc dc60 a3bd 6158 9cbd 3a7b 453d
00000150: fae9 e33d f789 ca3d ff0f 473d 003a 0b3c
00000160: 88c1 8c3d e721 35bd ecd3 8fbc 357e 4cbd
00000170: 7e04 0a3d 3549 433d 8a76 c03c 9cb5 43bc
00000180: 6da2 c53d e08c 1dbd d382 cebc c6b7 c63b
00000190: ec23 b53d 40ee 1a3d cf66 05bd 09eb 823d
000001a0: 3a1b 59bb 1d89 4bbd 9f69 9b3c 9185 a0bd
000001b0: 1fae d43c 2fe8 8abd 172c 0d3a 88a2 0e3d
000001c0: 228c eb3c eb34 a2bb 07f5 84bd bed7 593b
000001d0: eec7 35bd e031 f63b 1c0f da3c 1bf1 e5bd
000001e0: 5c82 67bc 24f6 dfbc 3140 da3d bfac 9ebc
000001f0: 3036 803d 00ca ff3c 2503 5b3c 6fbf 3dbd
00000200: da7c a23d ad97 443d a64f 69bd 0bec 7b3d
00000210: f170 b03d 3914 f2bc 644e 2c3d 618d 463d
00000220: 3d40 92bc ac89 993d 5f8c 97bd eec2 8b3d
00000230: ad94 79bd c747 0d3d 2add 3abd 265b 41bd
00000240: 793d dfbc f192 1abd 97e5 94bd be52 3b3b
00000250: 19e9 fdbc e324 02bc 1dec 823d 00d5 a9bd
00000260: 2237 e43d b537 b3bc e1fa 45bd d2e5 873d
00000270: d56e 54bd fad5 a5bd fce1 533d 31fa fdbd
00000280: 0869 023e 7084 90bd a06c 2c3d 71ca ac3d
00000290: 514f a6bd 3602 ea3c 8066 503d 7011 f5bc
000002a0: 088f ab3d 070c 72bd 5f38 35bd b161 213d
000002b0: 69ab e3bd 7bbc 1bbd 3172 3bbd 9599 e73c
000002c0: 5d86 b9bd ad07 cdbc 00ef b63c 3fc5 24bd
000002d0: e07e db3c 1a27 cebd 279c 93bd 7a73 a63d
000002e0: 74f7 723c 6dc4 a93d 5cb6 a7bd e1a9 fc3c
000002f0: 4fd5 b63d 7a9c 52bc 7473 3b3c 47fb 86bd
00000300: 9b16 803d 280f 53bd fdda 253d 0014 863d
00000310: 7f87 d73c 188a 1abd 453c babd c048 f93b
00000320: 3d12 c6bb f378 943d ad4d b93d d960 0a3e
00000330: 366f 72bc 1944 943d e38c 44bc 5dd3 413d
00000340: 33d9 9b3d 9abe 8b3d 2839 84bd 2b3c 243d
00000350: 2202 83bd 62ef 8339 98b7 babd 642e 1cbd
00000360: a820 833d 8c25 e5bc 755e b33c 656a 55bd
00000370: 210b 10bd 27b3 a23d 4c26 cb3d eb9b 84bd
00000380: f03b 8cbd 73e9 86bd c39d b0bc a543 9cbd
00000390: 87a9 1bbd f271 f23c 71ef 66bb 3cb8 a2bd
000003a0: 308a 10bd 3abb 5f3d 3ebc a23d d054 873d
000003b0: df8b 8e3d 7378 82bd 5e78 023d be1d 153d
000003c0: a297 b5bd 4c0a 733d f912 e33d 9e6b b0bd
000003d0: 0018 693d 80d8 f9bb 05e2 c53d f385 debd
000003e0: 6848 a6bd 65cd cf3d 4911 7a3d 1107 3dbd
000003f0: 07dd 813d 1d51 a43c ad6a 883d 928a 403d
0.0443794 -0.06588451 0.06596154 0.017388934 0.011427724 0.0064413897 -0.040802404 0.07428106
-0.009438444 -0.08272283 0.0393647 -0.09540552 0.061543472 -0.07415262 -0.042449225 -0.029592725
-0.015610632 0.053908966 -0.050588436 0.049023606 -0.067909434 -0.048553295 0.08276915 -0.08997978
-0.036938034 -0.037667163 0.03973892 0.0494813 -0.04308837 0.042583108 0.0153627815 -0.09983366
-0.08439165 0.11208273 -0.052331295 0.085803516 -0.051067214 -0.065946825 -0.095076986 0.050115153
-0.0138852475 -0.07520011 0.012152877 -0.07272464 -0.012919784 0.07281266 0.03294052 -0.0091578495
0.064091824 -0.06494516 -0.07137387 -0.08546065 -0.06522026 -0.038150374 0.11349805 0.030741757
0.025857674 -0.07477946 0.049441148 -0.08918105 -0.104543984 0.04105623 0.04874148 -0.08958414
-0.053940557 -0.07080554 -0.061536927 0.06783411 0.08138933 -0.049769938 0.055078004 -0.009692927
0.046692494 0.04777668 0.020577304 0.086107016 -0.08266917 0.08017124 -0.05631548 -0.05852891
-0.027840374 -0.07977459 -0.076340444 0.04821322 0.11128612 0.09889596 0.04859924 0.008497715
0.06872851 -0.044221785 -0.017557107 -0.049925048 0.03369569 0.047677238 0.023494024 -0.0119451545
0.09650121 -0.038464427 -0.025208866 0.006064388 0.08844742 0.03782487 -0.03256875 0.06392486
-0.00331278 -0.04969131 0.018971262 -0.07837976 0.025961934 -0.06782567 0.0005385293 0.03482297
0.028753344 -0.004950156 -0.06492048 0.0033240165 -0.04438012 0.00751327 0.026618533 -0.11227628
-0.014130201 -0.027339049 0.10656775 -0.019369481 0.062603354 0.03122425 0.013367449 -0.046325143
0.0793397 0.04799621 -0.056960724 0.061504405 0.08615292 -0.029550659 0.042066947 0.048474673
-0.017852897 0.07496962 -0.073998205 0.06824289 -0.060932804 0.03449228 -0.045621075 -0.047206067
-0.027250992 -0.03773779 -0.07270353 0.0028583254 -0.030994939 -0.007943365 0.06392691 -0.0829258
0.11143328 -0.02187715 -0.04833496 0.066356316 -0.05186351 -0.080974534 0.051729187 -0.12401236
0.12735379 -0.070565104 0.04209578 0.0843705 -0.08120597 0.028565507 0.050879 -0.029915541
0.083768904 -0.0590935 -0.044243213 0.039399806 -0.11116678 -0.038021546 -0.0457632 0.028271476
-0.09058831 -0.025028074 0.022330761 -0.04022717 0.026793897 -0.10066052 -0.07207518 0.08127494
0.014829505 0.08289418 -0.08189079 0.030842723 0.08927404 -0.01285469 0.0114411 -0.06590896
0.06254312 -0.051528126 0.040492047 0.065467834 0.026309727 -0.037729353 -0.09093527 0.0076075494
-0.0060446546 0.07249632 0.090480186 0.13513507 -0.014797023 0.07239551 -0.011996481 0.047320712
0.07609787 0.06823464 -0.06456214 0.040096443 -0.06396891 0.0002516462 -0.09117049 -0.03813018
0.06402713 -0.027972005 0.021895627 -0.05210342 -0.035166863 0.07944327 0.09919414 -0.064750515
-0.0684737 -0.06587496 -0.021559602 -0.0763009 -0.03800347 0.029595349 -0.0035237933 -0.07945296
-0.035288036 0.054621913 0.079460606 0.066079736 0.06960272 -0.0637063 0.031853072 0.036405317
-0.08866812 0.05933599 0.11087603 -0.08614276 0.056907654 -0.0076246858 0.096622504 -0.108653925
-0.08119279 0.10146598 0.06105164 -0.046149317 0.06340986 0.02005821 0.06660972 0.04700715

fc2.bias f4 [84]
00000000: 1838 d43c 8b3e 25bb 489f 06bd d154 b73c
00000010: d2f0 c6bd 4aaf e33c 9977 2fbd 9315 803c
00000020: add5 f6bc 9670 08bd 447c f03d ba30 8a3d
00000030: 1ce9 17bd 3ee8 1e3e c485 78bd 219e 56bd
00000040: 7c91 babb 90de d33d 8e85 9d3d 1315 a0bc
00000050: fd49 903d 5d1e 913c 60b2 763d 8c5c 793d
00000060: d403 2f3e a7ba 513d 2cb8 cdbd 591d 27bd
00000070: 932c f6bc d6b3 70bc 056b 8ebd 101f 863d
00000080: 9437 cc3b 9bf8 61bd f83a 97bd aed4 7d3d
00000090: 2c0f bfbd a191 8e3d 1002 fcbd 72fb 1bbd
000000a0: c7ef 08be 16c5 6cbd f656 bbbc 9000 9cbd
000000b0: e4f2 bcbd ee72 07bd c2d5 ac3d 5e67 cebc
000000c0: b178 abbd 01b5 d03c c92b 76bc f490 ab3a
000000d0: cb46 a23d 7994 fb3c 80d8 d735 0809 a0bd
000000e0: 6e96 2e3e ac8f 3f3d f0d0 a3bd 2e78 c53d
000000f0: 2821 6cbc bdfb ee3c 0a9e f0bb 3848 ecbc
00000100: 89b0 123e b0c8 97bb c4a3 80bc 23ac 85bd
00000110: 41b9 d5bc e661 87bd b755 8c3b 2a74 8abd
00000120: c4b1 f53d c402 4b3d 179b b53c e535 a6bd
00000130: e854 333d c751 243d b942 5dbd 4dcf 6cbd
00000140: ab77 b13d 23b9 1a3e ae31 a9bd 5655 94bd
0.025905654 -0.002521428 -0.032866746 0.02237931 -0.097139016 0.027793545 -0.042838667 0.015635287
-0.030131185 -0.033310495 0.11742452 0.06747575 -0.037087545 0.15518281 -0.060674444 -0.052396897
-0.0056936126 0.10345185 0.07691489 -0.019541299 0.07045362 0.017714674 0.060228705 0.060879275
0.17091304 0.051203396 -0.100448936 -0.040799472 -0.030050552 -0.014691314 -0.06954006 0.065488935
0.0062322114 -0.05516873 -0.07384294 0.061970405 -0.09329066 0.0696137 -0.12305081 -0.038081594
-0.13372718 -0.057805143 -0.022868615 -0.07617295 -0.09226015 -0.03306859 0.084392086 -0.025195774
-0.083726294 0.025476934 -0.015025088 0.0013089464 0.07923659 0.030710446 1.6081758e-06 -0.078142226
0.17049572 0.046767876 -0.07998836 0.09642063 -0.014412202 0.029172773 -0.0073430585 -0.02884303
0.14325155 -0.004632078 -0.01570309 -0.06526973 -0.026089313 -0.066104695 0.004282679 -0.06760438
0.11996797 0.049563184 0.02216868 -0.08115748 0.043782145 0.04011705 -0.05401871 -0.057814885
0.08665403 0.15109687 -0.08261429 -0.07242839

fc3.weight f4 [10, 84]
00000000: ef25 40bd c774 1abd e392 6f3d 3019 843d
00000010: 474b d4bd 8289 bb3d adea dbbc 2673 283c
00000020: 28aa a7bd 5993 a93d 1094 543e 0f19 fb3d
00000030: cd4b 063e e71d 19bd d7bb 183e 0425 cb3d
00000040: 260f e83d dea3 e9bd 59de d337 8385 28be
00000050: 7345 3e3e 36d8 143e f209 fb3c 9514 bcbd
00000060: 15b8 333c 1ae9 cf3d ad23 b73d 3849 143e
00000070: 83d4 5cbd 593a 993c 51ae 58bd b344 99bd
00000080: d603 8cbd 407b 1dbe 6c54 4dbd 08e1 95bd
00000090: 903b 453d 56fb eb3d 4491 efbd 9c67 e1bd
000000a0: 632e e6bd 7394 7c3d 97f2 86bc ce93 bcbd
000000b0: a455 1dbe f578 863c 829d 9fbb 4e0b 10be
000000c0: e7a9 ac3d 0dca 783e 98af 48bc 200c d0bd
000000d0: b0ce 443b aa8c 5a3c 3be1 0d3e a4f7 a4bb
000000e0: 4ff5 0abe 5164 c03d bd43 223c 4ce4 023d
000000f0: 5ae2 45bd 1746 96bb a60d af3b ae7c 82ba
00000100: 7ffd 7a3e 799e c23a 1f26 00be 62b0 473e
00000110: 2d53 0d3e 1b70 d9bd dc2c 803d 6249 c13d
00000120: 2b6f fcbd 70c8 54bd ec2f 873d c30c cd3d
00000130: 1c77 2cbd a60a d8bd 5e24 f83c c397 8ebd
00000140: 4748 9e3d 3367 adbd 80ef e5bd c30f bc3d
00000150: eca1 7ebd 22f9 b03d dcc8 9e3d 80f2 cbbc
00000160: ca4f 5fbc 2837 813d 8597 233d 08fe 723d
00000170: b4da 403d 018a 3fbc e067 b7bd 91ab ad3c
00000180: 886d 56bd 352a 64be 3f41 79bd fe7e 8d3b
00000190: b1cc c23d af44 88be 9ef9 4dbe b754 19bd
000001a0: 1afe 1e3e 6d60 a43b 0310 cabd f3e1 66bd
000001b0: f9c7 59be 7be1 e9bd a4f3 84bd 982d d2bd
000001c0: 5946 95bd 483c 35be 1148 243d 2983 67bd
000001d0: 0699 0b3e 390a 263d bb85 4b3e e40b 64bc
000001e0: 9af3 09bc db75 92bd 17b4 113e 79f5 f0bd
000001f0: 652c b5bd 3b5e f2bc 3096 1ebd a38e 97bd
00000200: 313b 453e 16ff a4bd 1d55 b93b e48c 4d3e
00000210: dc8e 1e3d 2441 10b9 6e33 fcbd 4f99 fe3c
00000220: 5af3 9abd 82eb a2bd d0d5 99bd c0a4 523d
00000230: 763b 72be 9cda 033d 482f adb9 f137 be3d
00000240: 1536 b03d 6c84 e73d 7fc1 c43d 9485 b63c
00000250: 75de 4cbe c9d2 403d d9ca 0fbd 3baa 523d
00000260: 1138 073e f1cf b33d 431f 7ebc a934 9e3d
00000270: b3ba 01be 1933 11bd 1973 8a3d 5bfb ebbd
00000280: d7a6 a63d 4fa2 a73d f4c4 6a3c 1be5 ca3d
00000290: c8de 303e 4712 c2bd c163 1bbd cc92 29be
000002a0: 503a f2bd d882 0fbe c192 e1bd 4065 adbd
000002b0: f343 b3bd 4654 abbc 8fb1 903d f698 543d
000002c0: 6368 12bd 1f5e 47bd 4a8d 743d f480 443d
000002d0: 54d2 3abd 7280 ea3d d8ce f73d 2641 68be
000002e0: fecd 2ebe 5ce4 243e 0f9f 463e 008a e0bc
000002f0: 6539 873d e8e7 1b3e 1f21 f93b d8ec 25bd
00000300: c147 d33d 3e27 65bd 2a32 833a 0989 da3c
00000310: a221 d93d 9c4f 353e 251d 7b3c 7692 d43d
00000320: f2a9 de3d 70f2 373d 944e 07be 0c8a 92bc
00000330: 8294 56bd 2135 16be 5e1e 683c 1942 423e
00000340: 0f7a 05be 130a 4a3d 3151 d6bd 338d 08be
00000350: bf7b d7bd 8451 323e ff3c 6e3d cd8f 1f3d
00000360: ef9d 15bd 05a8 34bd 2041 01bd 8360 debd
00000370: c4ef 9abc a6a6 b8bd 52ae 953d 53d9 1a3e
00000380: 5f76 a33d bb98 8f3e e34e be3a 7fbf 2a3e
00000390: 34cb e7bd fe9a 863c b44f 133d c094 643d
000003a0: 8ab0 133e 0490 d03b af12 15bd 34a9 f23d
000003b0: 6d59 b63d d833 373c 493e 90bd 886b d6bd
000003c0: e542 f1bc b701 d8bd 33a4 ca3b cde0 d2bb
000003d0: 3056 ea3d e6ac 00bc 543b 4dbb d348 223d
000003e0: e73d 04bd 66e5 34bd c252 76bd 53ba fc3d
000003f0: 0fd5 1b3e e908 60bd fa99 87bd c3be 81bd
-0.046911176 -0.037709024 0.05848969 0.06450117 -0.103659205 0.09157087 -0.0268453 0.01028136
-0.081867516 0.082800575 0.20759606 0.12260639 0.13114853 -0.037382033 0.14915405 0.099191695
0.11331014 -0.11408208 2.5256699e-05 -0.1645718 0.1858118 0.14535603 0.03064439 -0.09183613
0.010969182 0.101518825 0.089423515 0.14481056 -0.053913604 0.01870458 -0.052900616 -0.074838065
-0.06836669 -0.15379047 -0.05012934 -0.07318312 0.048152506 0.11522548 -0.11697629 -0.1100609
-0.11239316 0.06166501 -0.016473098 -0.09207879 -0.153647 0.016415099 -0.0048710713 -0.14066812
0.08430844 0.24295826 -0.012248896 -0.10158563 0.0030030422 0.013339201 0.1385545 -0.005034404
-0.1357014 0.09394134 0.009903845 0.031956002 -0.04831157 -0.004585992 0.005342203 -0.000995537
0.24510764 0.0014848254 -0.12514542 0.19500878 0.1380126 -0.106170855 0.06258556 0.09437825
-0.12325891 -0.051948965 0.06600937 0.100122 -0.04210578 -0.10548906 0.030290779 -0.0696254
0.077286296 -0.08466949 -0.112273216 0.09182694 -0.06216614 0.08641268 0.07753155 -0.024895906
-0.013629863 0.06309348 0.039939422 0.059324294 0.04708357 -0.011690618 -0.089553595 0.021199973
-0.05235055 -0.22281726 -0.06085324 0.004318117 0.09511698 -0.266149 -0.20114753 -0.037434306
0.1552662 0.0050163777 -0.09866335 -0.056367826 -0.2126769 -0.1141996 -0.06491783 -0.102626026
-0.072888084 -0.17698777 0.04010779 -0.05652157 0.13632593 0.040537093 0.19875233 -0.013918851
-0.008419896 -0.071513854 0.14228855 -0.1176557 -0.08846358 -0.029585948 -0.03871745 -0.07400253
0.19260861 -0.08056466 0.0056558982 0.20073277 0.03871046 -0.00013757177 -0.12314497 0.031078963
-0.07565947 -0.07955076 -0.075114846 0.05142665 -0.23655495 0.032190904 -0.0003303236 0.09288014
0.08604065 0.11304554 0.09607219 0.022280492 -0.20006736 0.04707602 -0.03510556 0.051431876
0.13204981 0.08779896 -0.015510383 0.07724888 -0.12668876 -0.03544912 0.067602344 -0.115225516
0.08137291 0.08185255 0.014329184 0.0990698 0.17272484 -0.094761424 -0.03793693 -0.16559905
-0.118275285 -0.14014757 -0.11014319 -0.084665775 -0.08753195 -0.020914208 0.070651166 0.051903687
-0.035744082 -0.048673745 0.059705056 0.04797454 -0.04561074 0.1145028 0.12099999 -0.22681102
-0.17070767 0.16102737 0.19396614 -0.027409554 0.06602744 0.15225184 0.0076028253 -0.040509075
0.1031642 -0.055945627 0.0010009457 0.026676672 0.10602118 0.1770615 0.015326773 0.10379498
0.10872258 0.04490894 -0.13213569 -0.017888092 -0.05238772 -0.14668705 0.014167396 0.18970527
-0.13034843 0.049326014 -0.10464705 -0.13335113 -0.105216496 0.17413908 0.05816364 0.0389555
-0.03652757 -0.04410555 -0.03155625 -0.10858252 -0.018913157 -0.09016161 0.073086396 0.15121965
0.07981562 0.28046212 0.001451936 0.16674612 -0.11318055 0.016431328 0.035964683 0.05580592
0.14422813 0.0063648243 -0.03639477 0.11848679 0.08903775 0.011181794 -0.0704313 -0.10469729
-0.029450843 -0.10547202 0.006184125 -0.0064354897 0.1144222 -0.007853722 -0.003131588 0.03962023
-0.032285597 -0.044164084 -0.060137518 0.12340226 0.15217994 -0.054695997 -0.066211656 -0.06335213

fc3.bias f4 [10]
00000000: 7eae 14be 459e 2abe ced4 db3c 0e64 e63d
00000010: f2c6 b83e cd05 393c 8e9d 24bd 2d92 ad3c
00000020: e4f7 883e 6e52 2cbe
-0.14519688 -0.16661938 0.026834872 0.11249553 0.36089283 0.011292887 -0.04018932 0.021187866
0.26751626 -0.1682832
